server_threads/lstm_parameters.pth (torch, 4311 bytes, 5 tensors)

lstm.weight_ih_l0 f4 [12, 7]
0	0x3c964ffe	0.01834869
1	0x3ce7912e	0.02826747
2	0xbda8f043	-0.08248951
3	0x3f03f2a2	0.51542103
4	0x3d60368e	0.054739527
5	0x3eb829be	0.35969347
6	0x3de2273a	0.11042638
7	0xbc9dd301	-0.019265654
8	0x3e7b884c	0.24563712
9	0xbd2822e5	-0.041048903
10	0x3e93ca05	0.28865066
11	0xbc8a44d0	-0.016878515
12	0x3e8f7915	0.28022066
13	0x3e17a5b7	0.14809309
14	0x3af1cf88	0.001844869
15	0xbe1412a7	-0.1446024
16	0xbd9e8cdf	-0.07741713
17	0x3e35dc35	0.17759784
18	0x3d63dfa8	0.055633217
19	0x3de2fefa	0.11083789
20	0x3da82d30	0.08211744
21	0xbec0cab3	-0.37654647
22	0xbf331c7a	-0.69965327
23	0x3e6c5fc5	0.23083408
24	0xbec74301	-0.38918307
25	0xbd47a24d	-0.048738766
26	0x3e1ff8ab	0.15622203
27	0x3cd99654	0.02656094
28	0x3d8d537c	0.06900689
29	0xbdcf77d9	-0.10130281
30	0x3d135c5f	0.035976764
31	0xbe14cc25	-0.14531
32	0x3dcac9cb	0.0990177
33	0xbca8179c	-0.02051907
34	0xbd7f8433	-0.062381934
35	0xbc821ae0	-0.015881956
36	0x3e4fd0ee	0.20294544
37	0xbe138642	-0.14406684
38	0x3e879078	0.26477408
39	0x3dbc5154	0.091951996
40	0xbe71ab89	-0.23600592
41	0x3e8127a2	0.2522555
42	0x3ed23c31	0.41061547
43	0x3ef3d394	0.4762236
44	0x3d71d5b7	0.059041705
45	0xbec04590	-0.37553072
46	0x3e9d9aef	0.30782267
47	0xbdee117a	-0.11624427
48	0xbe2f0bfe	-0.17094418
49	0xbc020a9d	-0.007937101
50	0xbc970c69	-0.018438535
51	0x3b2ebdea	0.002666349
52	0xbcbcd4de	-0.023050722
53	0x3f1cddc9	0.6127592
54	0xbc2d14af	-0.010564013
55	0xbb16044c	-0.0022890745
56	0x3dc6aee7	0.09701329
57	0x3d9c545a	0.07633276
58	0x3d23adc0	0.039960623
59	0xbdf8d5be	-0.12150143
60	0x3f56d14b	0.83913106
61	0xbcc8d32c	-0.024514757
62	0xbd1e732a	-0.038684048
63	0xbee3bb50	-0.44478846
64	0xbe40b1c7	-0.18817817
65	0xbd87b96c	-0.06627163
66	0x3f0bf3dd	0.5466898
67	0xbe7936df	-0.24337338
68	0x3d39282b	0.045204323
69	0xbd165664	-0.036703482
70	0x3d897c40	0.06713152
71	0x3d5b41ab	0.053529423
72	0x3d563883	0.052299988
73	0xbe846b91	-0.25863317
74	0xbed1b490	-0.4095807
75	0xbea3fd82	-0.3202935
76	0xbde4aced	-0.111657955
77	0x3d0522bb	0.032503825
78	0x3d39a5ee	0.04532426
79	0x3d00e6ef	0.031470235
80	0xbd1fcf6c	-0.039016172
81	0x3cb7055e	0.022341426
82	0x3e4048d4	0.18777782
83	0xba4c132b	-0.00077848387

lstm.weight_hh_l0 f4 [12, 3]
0	0x3d83bf77	0.064330034
1	0x3d47bf97	0.0487667
2	0x3f1c2514	0.60994077
3	0xbf39fc26	-0.72650373
4	0xbe556dda	-0.20842686
5	0x3f63fbfa	0.8905636
6	0xbe3d8fd8	-0.18511903
7	0xbed99ddd	-0.42503253
8	0x3ee4f56e	0.44718498
9	0x3e5bcdb2	0.21465185
10	0xbeadf5a3	-0.33976468
11	0xbe50205a	-0.20324841
12	0x3f122a3c	0.57095695
13	0xbe70c43c	-0.23512357
14	0xbe3ce31f	-0.18446015
15	0xbf1ea551	-0.61971
16	0xbe8b3d28	-0.27195096
17	0x3d0f33fc	0.034961686
18	0xbe992f75	-0.2991902
19	0xbeb76234	-0.3581711
20	0xbe12cf1d	-0.1433682
21	0x3dbe269b	0.09284707
22	0xbeb68bb9	-0.35653475
23	0xbec58856	-0.3858058
24	0xbef49808	-0.4777224
25	0xbd2373c9	-0.039905343
26	0x3f0e60df	0.55616564
27	0xbdc9c354	-0.09851709
28	0x3e1e8411	0.15480067
29	0xbee8f81c	-0.45501792
30	0xbf4559cf	-0.7709016
31	0xbea0f8e4	-0.31439888
32	0x3eccfdb5	0.40037313
33	0xbf611058	-0.87915564
34	0xbe911ee5	-0.28343883
35	0xbefdf657	-0.49602005

lstm.bias_ih_l0 f4 [12]
0	0x3e72e634	0.23720628
1	0x3ec7f119	0.3905113
2	0x3ed68cae	0.41904205
3	0xbe546868	-0.20742953
4	0xbec9449a	-0.3931015
5	0xbe9dadcf	-0.30796668
6	0xbeca8f52	-0.3956247
7	0xbeadceb5	-0.33946767
8	0x3f0b5334	0.5442383
9	0x3dd04c9f	0.10170864
10	0x3f920488	1.1407633
11	0x3f0c6596	0.5484251

lstm.bias_hh_l0 f4 [12]
0	0xbe81af39	-0.25328997
1	0x3f80a032	1.0048888
2	0x3e99b324	0.30019486
3	0xbd19a810	-0.037513793
4	0xbef3bd06	-0.4760515
5	0xbf0b8c9f	-0.54511446
6	0xbd066531	-0.032811347
7	0xbc221e2e	-0.009894891
8	0x3e91e14d	0.28492203
9	0xbe83d980	-0.25751877
10	0x3f894cb6	1.0726535
11	0xbd626285	-0.055269737

linear.weight f4 [1, 3]
0	0x3d1767e7	0.036964323
1	0x3f377f4c	0.71678615
2	0x3ec51262	0.38490587
