lstm_parameters.pth (torch, 4311 bytes, 5 tensors)

lstm.weight_ih_l0 f4 [12, 7]
0.13325244 0.11119184 -0.22865248 0.28944907 -0.21035102 0.21652764 -0.16285096 -0.14408146
0.061296035 -0.041517206 0.22410281 -0.14149247 -0.0033772993 0.23385245 -0.011930267 -0.08673837
0.06915477 -0.03295078 0.7779256 -0.07773423 0.040369824 -0.3135692 -0.63774663 0.26983654
-0.6194718 -0.22234398 -0.11115083 -0.25117654 0.043869156 -0.094102055 0.009837935 -0.08197633
-0.03328317 -0.006556798 -0.10139649 -0.009236359 0.142574 -0.006648179 0.06371523 0.61203074
-0.012818953 0.11283984 0.4128465 0.31679478 0.046300687 -0.1915968 0.49963534 -0.062111646
0.12666997 -0.015142493 -0.015164889 0.0008127486 -0.011030229 0.764932 -0.012548508 0.005212105
0.06656802 0.011269635 0.0070433724 -0.08506519 0.84706366 -0.045266744 0.00015173719 -0.3142547
-0.13289154 -0.090052 0.3568215 -0.6095444 0.050077643 -0.030961186 0.17662315 -0.045591902
0.051700134 -0.307007 -0.41398633 -0.13700105 -0.15366408 0.12558122 0.093925074 -0.019282378
-0.05594629 0.24881622 0.12817802 -0.050582796
00000000: 5473 083e 8cb8 e33d e023 6abe ab32 943e
00000010: 4266 57be 6cb9 5d3e 67c2 26be 178a 13be
00000020: 8d11 7b3d f20d 2abd 357b 653e 67e3 10be
00000030: ae55 5dbb 0477 6f3e 2b77 43bc e3a3 b1bd
00000040: 04a1 8d3d 66f7 06bd 2226 473f 2033 9fbd
00000050: d45a 253d 248c a0be 5d43 23bf 0428 8a3e
00000060: b495 1ebf 24ae 63be 0ca3 e3bd 369a 80be
00000070: 25b0 333d 94b8 c0bd 4a2f 213c 35e3 a7bd
00000080: ef53 08bd 68da d6bb f7a8 cfbd 1954 17bc
00000090: ebfe 113e f8d8 d9bb 217d 823d 0cae 1c3f
000000a0: 9606 52bc 9318 e73d 9e60 d33e ed32 a23e
000000b0: caa5 3d3d f431 44be 34d0 ff3e c868 7ebd
000000c0: c6b5 013e 3818 78bc 2876 78bc a30e 553a
000000d0: 22b8 34bc 95d2 433f 4298 4dbc 4eca aa3b
000000e0: d054 883d 46a4 383c 17cc e63b a936 aebd
000000f0: 2ad9 583f 9f69 39bd a41b 1f39 fee5 a0be
00000100: b814 08be 2f6d b8bd 4fb1 b63e 1a0b 1cbf
00000110: 371e 4d3d 50a2 fdbc b3dc 343e 93be 3abd
00000120: 85c3 533d 0630 9dbe 04f6 d3be 014a 0cbe
00000130: 1e5a 1dbe 5d98 003e ca5b c03d 14f6 9dbc
00000140: f027 65bd aec9 7e3e 1941 033e e82f 4fbd

lstm.weight_hh_l0 f4 [12, 3]
0.09874207 -0.1366727 0.6958359 -0.6667761 -0.27734607 0.71977323 0.090351 -0.1064012
0.4329817 0.18062213 -0.44751996 0.075595796 0.8732543 -0.107117265 -0.34056842 -0.45487818
0.10329826 -0.107420914 0.08618792 0.02248058 -0.25714517 0.10334459 -0.11176506 -0.13619041
-0.5967868 -0.5492452 0.0134607535 -0.021612596 0.1667486 -0.36266407 -0.39586064 -0.15294759
0.54150605 -0.5973525 -0.182819 -0.41454655
00000000: 4839 ca3d eef3 0bbe 4d22 323f d7b1 2abf
00000010: 4e00 8ebe 0f43 383f f209 b93d dfe8 d9bd
00000020: c7af dd3e 02f5 383e 5621 e5be f8d1 9a3d
00000030: 988d 5f3f 4c60 dbbd fc5e aebe cbe5 e8be
00000040: 0a8e d33d 7fff dbbd 4b83 b03d 3129 b83c
00000050: 88a8 83be 54a6 d33d 14e5 e4bd 8075 0bbe
00000060: 05c7 18bf 559b 0cbf 7e8a 5c3c e60c b1bc
00000070: 25c0 2a3e 1baf b9be 3fae cabe 4b9e 1cbe
00000080: 24a0 0a3f 18ec 18bf e734 3bbe 723f d4be

lstm.bias_ih_l0 f4 [12]
0.36042067 0.44425547 0.26403877 -0.07572318 -0.8473547 -0.629214 -0.64094055 -0.4544996
0.41540018 0.0875845 1.1230428 0.41993707
00000000: 0f89 b83e 7475 e33e 1730 873e c114 9bbd
00000010: 3dec 58bf 2b14 21bf ae14 24bf 2cb4 e8be
00000020: 55af d43e 815f b33d debf 8f3f fe01 d73e

lstm.bias_hh_l0 f4 [12]
-0.13007629 1.0586259 0.14519155 0.09419431 -0.9303057 -0.86636585 -0.27812478 -0.12492628
0.15608637 -0.27164176 1.0549332 -0.18376164
00000000: b832 05be 0e81 873f 18ad 143e f2e8 c03d
00000010: 8428 6ebf 27ca 5dbf 5f66 8ebe 59d9 ffbd
00000020: 1bd5 1f3e a114 8bbe 0d08 873f 032c 3cbe

linear.weight f4 [1, 3]
0.0070078997 0.64954394 0.32904044
00000000: 86a2 e53b 8348 263f fd77 a83e
