lstm_parameters.pth (torch, 4311 bytes, 5 tensors)

lstm.weight_ih_l0 f4 [12, 7]
0.22726877 0.13328199 -0.33610576 0.45077902 -0.056379415 0.26592675 -0.24743573 -0.1685835
0.10295417 -0.06462883 0.22796986 -0.010503204 -0.045247365 0.20397492 -0.018106682 -0.114483126
0.08400126 -0.0017626106 0.45934838 -0.048702277 -0.0024611154 -0.19195685 -0.5100903 0.3952981
-0.48978484 -0.25888214 -0.043301478 -0.2286055 0.110602036 -0.1051598 0.021501306 -0.14286903
-0.04053319 0.028835589 -0.09666471 0.1187009 0.18200466 -0.03729238 0.13503683 0.34194914
0.038272265 0.053502314 0.29277354 0.51155317 0.20234135 -0.29251003 0.37341663 -0.093329206
0.26033404 -0.016757878 -0.017638117 -2.5933085e-05 -0.008559751 0.7877612 -0.011878398 0.008818203
0.04581862 0.024955634 0.010960112 -0.12508763 0.84477854 -0.07198516 0.010524889 -0.3566505
-0.10173882 -0.19435416 0.4063429 -0.38803086 -0.080090776 -0.18363433 0.13514616 -0.055686496
0.05983719 -0.35743052 -0.32967174 -0.21903455 -0.16574492 0.13157935 0.14524794 0.0075434786
-0.07423989 0.1412899 0.18905333 -0.07330523
00000000: 25b9 683e 137b 083e 0e16 acbe 82cc e63e
00000010: 1aee 66bd 8d27 883e cb5f 7dbe 27a1 2cbe
00000020: a3d9 d23d 1f5c 84bd ee70 693e a115 2cbc
00000030: 4d55 39bd cdde 503e 7754 94bc 2176 eabd
00000040: da08 ac3d 6607 e7ba b62f eb3e 0a7c 47bd
00000050: aa4a 21bb 5690 44be 4795 02bf 8364 ca3e
00000060: 14c5 fabe 338c 84be e45c 31bd 8f17 6abe
00000070: 5283 e23d 055e d7bd 8223 b03c 424c 12be
00000080: 2106 26bd 9d38 ec3c 26f8 c5bd 7519 f33d
00000090: 6e5f 3a3e e5bf 18bd 1847 0a3e f513 af3e
000000a0: 61c3 1c3d 3e25 5b3d 6ae6 953e 26f5 023f
000000b0: 9232 4f3e e0c3 95be 7730 bf3e 6223 bfbd
000000c0: 814a 853e d147 89bc d07d 90bc e08a d9b7
000000d0: 333e 0cbc b8aa 493f 9d9d 42bc 397a 103c
000000e0: 4eac 3b3d c26f cc3c 0b92 333c f916 00be
000000f0: 6843 583f f56c 93bd 9670 2c3c e59a b6be
00000100: 715c d0bd c704 47be 2d0c d03e fbab c6be
00000110: a206 a4bd a30a 3cbe c163 0a3e 8617 64bd
00000120: d717 753d 2201 b7be bcca a8be 984a 60be
00000130: 09b9 29be bdbc 063e e0bb 143e 492f f73b
00000140: 150b 98bd 4dae 103e 3297 413e 0d21 96bd

lstm.weight_hh_l0 f4 [12, 3]
0.22292522 -0.079104535 0.4777364 -0.8056386 -0.2854283 0.80155766 0.18917114 -0.028875083
0.49288514 0.27647388 -0.48238564 -0.19862555 0.78079337 -0.029068762 -0.16044687 -0.46393567
0.054598924 -0.112190224 -0.0074192914 -0.17898034 0.07869913 0.10892183 -0.13089974 -0.10585146
-0.4687317 -0.48936838 -0.098164864 0.02887256 0.22810802 -0.45193678 -0.4506383 -0.17412385
0.6129271 -0.5170773 -0.34193778 -0.43617606
00000000: 8246 643e 8f01 a2bd de99 f43e 553e 4ebf
00000010: a823 92be e232 4d3f 14b6 413e 708b ecbc
00000020: 715b fc3e fc8d 8d3e 40fb f6be 7f64 4bbe
00000030: 13e2 473f 9d21 eebc 2f4c 24be fa88 edbe
00000040: 1fa3 5f3d fdc3 e5bd 871d f3bb 9f46 37be
00000050: 022d a13d 6912 df3d 950a 06be a6c8 d8bd
00000060: 9afd efbe 7e8e fabe a90a c9bd 2686 ec3c
00000070: 2695 693e 4264 e7be 10ba e6be 864d 32be
00000080: cae8 1c3f 2e5f 04bf 7812 afbe 7852 dfbe

lstm.bias_ih_l0 f4 [12]
0.13146207 0.43719128 0.24881738 -0.2609848 -0.8096745 -0.7560412 -0.38918018 -0.46305624
0.40159383 -0.05839023 1.1463428 0.42797342
00000000: fe9d 063e 89d7 df3e fcc9 7e3e cd9f 85be
00000010: d446 4fbf eb8b 41bf a042 c7be b515 edbe
00000020: b59d cd3e 982a 6fbd 5cbb 923f 551f db3e

lstm.bias_hh_l0 f4 [12]
-0.35903624 1.0515739 0.12997054 -0.09106766 -0.8926245 -0.99319214 -0.026368449 -0.13348168
0.14227778 -0.41761783 1.078234 -0.17572376
00000000: 99d3 b7be f999 863f ff16 053e ae81 babd
00000010: 0a83 64bf d741 7ebf a502 d8bc 6caf 08be
00000020: 44b1 113e 01d2 d5be 9203 8a3f eef0 33be

linear.weight f4 [1, 3]
0.0008494919 0.6462736 0.33994985
00000000: 70b0 5e3a 3072 253f e80d ae3e
