lstm_parameters.pth (torch, 4311 bytes, 5 tensors)

lstm.weight_ih_l0 f4 [12, 7]
0.24145015 0.08620918 -0.29397598 0.32992214 0.042230055 0.16538997 -0.116773315 -0.15537132
0.046430837 -0.016958976 0.20088145 -0.076945215 -0.020904187 0.200503 -0.03215214 -0.055325434
0.020964438 -0.007898749 0.5610691 -0.06999221 0.0010788388 -0.170539 -0.5535742 0.41214344
-0.56890535 -0.19001599 -0.12899327 -0.12567092 0.029331496 -0.071689546 -0.0030183033 -0.06559042
-0.08453188 0.005716385 -0.0583695 0.019449387 0.13107523 -0.026944095 0.13267188 0.27168
0.012552407 0.10266699 0.33411393 0.4306406 0.061037723 -0.23561056 0.38137788 -0.0022033635
0.1230206 -0.007149293 -0.009600119 -0.0006522397 -0.014112557 0.7760214 -0.010214366 0.008991289
-0.0011789004 0.003928702 -0.0002736327 -0.034409814 0.8815428 -0.03329535 0.0060578254 -0.29663974
-0.13147311 -0.109876536 0.28574306 -0.29768816 -0.069008626 -0.023415983 0.13913994 -0.027556272
0.031191498 -0.2621223 -0.3676527 -0.10988115 -0.1401861 0.102215916 0.07600793 0.008735782
-0.04679838 0.11244735 0.140359 -0.04257122
00000000: b53e 773e 708e b03d 0584 96be 8eeb a83e
00000010: 6cf9 2c3d fd5b 293e d926 efbd a919 1fbe
00000020: 432e 3e3d 8ded 8abc deb3 4d3e 7495 9dbd
00000030: 423f abbc a950 4d3e f6b1 03bd ec9c 62bd
00000040: 9dbd ab3c c169 01bc 39a2 0f3f 1358 8fbd
00000050: d367 8d3a c7a1 2ebe 0ab7 0dbf 7704 d33e
00000060: c8a3 11bf 8d93 42be d016 04be e1af 00be
00000070: 9b48 f03c f8d1 92bd bace 45bb 4554 86bd
00000080: 0d1f adbd 8350 bb3b db14 6fbd 5254 9f3c
00000090: 9638 063e ddb9 dcbc 23db 073e a419 8b3e
000000a0: 9ca8 4d3c 1243 d23d fb10 ab3e ed7c dc3e
000000b0: b102 7a3d e543 71be f643 c33e 4e66 10bb
000000c0: 39f2 fb3d 9e44 eabb d149 1dbc 11fb 2aba
000000d0: 5b38 67bc 57a9 463f 285a 27bc 3350 133c
000000e0: 5585 9aba 57bc 803b 5c76 8fb9 4ef1 0cbd
000000f0: caac 613f b460 08bd b980 c63b 2ae1 97be
00000100: e3a0 06be f306 e1bd ea4c 923e 956a 98be
00000110: 6554 8dbd e0d2 bfbc b37a 0e3e b1bd e1bc
00000120: 5085 ff3c e534 86be fa3c bcbe 5e09 e1bd
00000130: f28c 0fbe 9456 d13d 0caa 9b3d 8620 0f3c
00000140: a8af 3fbd cc4a e63d 45ba 0f3e 295f 2ebd

lstm.weight_hh_l0 f4 [12, 3]
0.30256754 -0.021586224 0.42135933 -0.83005863 -0.24346241 0.7517177 0.24643832 0.12616818
0.59704983 0.29093558 -0.47442937 -0.26209438 0.8223006 0.0006113349 -0.2429855 -0.40067863
0.08434291 -0.17387316 -0.008161431 -0.08257298 0.05041709 0.08164269 -0.08204854 -0.1201258
-0.41532886 -0.50616235 -0.0625876 0.13044365 0.32787803 -0.5490456 -0.4668025 -0.23821671
0.5383358 -0.4872896 -0.23219745 -0.38605198
00000000: 22ea 9a3e 98d5 b0bc 69bc d73e b97e 54bf
00000010: 364e 79be 9270 403f 545a 7c3e 3b32 013e
00000020: 42d8 183f 82f5 943e 68e8 f2be 3c31 86be
00000030: 4b82 523f fe41 203a 31d1 78be c025 cdbe
00000040: fabb ac3d ce0b 32be 86b7 05bc 061c a9bd
00000050: 2782 4e3d 4834 a73d 1109 a8bd 8404 f6bd
00000060: fca5 d4be db93 01bf ed2d 80bd 0593 053e
00000070: a1df a73e 418e 0cbf bd00 efbe 15ef 73be
00000080: 60d0 093f 067e f9be 2bc5 6dbe 9ba8 c5be

lstm.bias_ih_l0 f4 [12]
0.09650972 0.46884853 0.2722671 -0.26988912 -0.97097033 -0.8691021 -0.5127515 -0.47245905
0.388323 -0.1312884 1.1766372 0.46059293
00000000: e3a6 c53d ea0c f03e 9866 8b3e e82e 8abe
00000010: 8391 78bf 7a7d 5ebf af43 03bf 27e6 f1be
00000020: 46d2 c63e 7770 06be 0c9c 963f d6d2 eb3e

lstm.bias_hh_l0 f4 [12]
-0.3939889 1.083226 0.15342115 -0.09997145 -1.0539217 -1.1062483 -0.14993937 -0.14288571
0.1290083 -0.49051312 1.1085283 -0.14310482
00000000: eab8 c9be 26a7 8a3f 6f1a 1d3e d5bd ccbd
00000010: e8e6 86bf 8b99 8dbf b589 19be a250 12be
00000020: c01a 043e 8924 fbbe 41e4 8d3f 128a 12be

linear.weight f4 [1, 3]
0.0019529995 0.649051 0.35273817
00000000: cafb ff3a 3528 263f 199a b43e
