Winduino_WebApp/threads/lstm_parameters.pth (torch, 4311 bytes, 5 tensors)

lstm.weight_ih_l0 f4 [12, 7]
000000 73 ed 07 3d 38 1b cd 3d 1a 5c 5b be 35 9d 87 3e
       0.033185434 0.10014957 -0.21421853 0.26487127
000010 40 e4 bd 3d 05 b0 da 3d 39 a0 04 3e bc 45 83 bd
       0.09272051 0.10678104 0.12951745 -0.06409785
000020 db 22 ca 3d 62 18 6e 3b e0 0c ab 3d 06 c1 c5 bd
       0.098699294 0.0036330451 0.08352065 -0.09655957
000030 6b e0 85 bb 76 06 bf 3d aa 16 13 bd 6c 61 d7 bc
       -0.0040855906 0.09327404 -0.035910286 -0.026291572
000040 0a 9d 0f 3c 3c 62 09 3c 5e 8f 05 3f 29 bb 39 bc
       0.008765468 0.008385237 0.52171886 -0.011336126
000050 02 29 90 3b ce 15 2f be ff 99 2e bf 0f e1 c0 3e
       0.0043994198 -0.17098162 -0.6820373 0.37671706
000060 7c c0 b0 be 95 2d 74 be 4e 8c 5f bc ae 73 e5 bd
       -0.34521854 -0.23845513 -0.013644291 -0.11203705
000070 90 54 fb bc a2 ff d6 bd 4c 9c 94 bc 88 06 08 3b
       -0.030679971 -0.10497977 -0.018140934 0.0020755846
000080 b3 e1 09 be 82 da 0d 3b 3f 98 3a 3b ba eb 67 bc
       -0.13465004 0.0021645133 0.0028472093 -0.014155323
000090 33 c3 24 3d 01 83 c5 3c bf 48 65 3d 4e 5a cf 3d
       0.04022522 0.02411032 0.05597758 0.10124646
0000a0 10 67 b9 3c 89 0f 23 3d f9 91 b5 3e 02 be b0 3e
       0.022632152 0.039809737 0.3546293 0.34519964
0000b0 f5 d8 91 3d ba 9d 17 be 25 df 8f 3e 82 f3 b2 3d
       0.071214594 -0.14806262 0.28099933 0.08737852
0000c0 7d df 33 3d 46 53 1c bc 28 78 04 bc 04 48 f9 ba
       0.043914307 -0.009541338 -0.008085288 -0.0019018655
0000d0 e5 dc 63 bc 25 95 40 3f f7 f2 46 bb b7 6b f8 3b
       -0.013907646 0.75227576 -0.003035722 0.0075812
0000e0 f6 d6 2c 3c 26 0c 0c 3d 4a 2b 02 3b 79 07 a0 bc
       0.010549298 0.034191273 0.0019862228 -0.019534813
0000f0 61 b2 56 3f 35 af a3 bb 11 b7 3b bb cf 1d 79 be
       0.83865935 -0.0049952515 -0.0028643052 -0.24327777
000100 be 8e 9a be b1 f5 45 bd 1b 91 3d 3e ee 32 a3 be
       -0.3018703 -0.048330013 0.18512385 -0.31874794
000110 70 78 cf 3c 5d 64 a4 3d bd 90 9d 3d 5c e1 46 3d
       0.025325984 0.08026955 0.07693622 0.048554763
000120 d9 c2 4f 3c f8 4b 14 be ed 0c a0 be 5b 6c 94 bc
       0.012680733 -0.14482105 -0.31259862 -0.018118074
000130 a6 a2 c8 bd 41 52 e0 3d eb b4 81 3d fd dd 16 bc
       -0.09796648 0.10953189 0.063333355 -0.0092082
000140 ef a8 b6 bc 1b 9d 7c bc 1d 41 d4 3c 44 b1 5c bc
       -0.02229735 -0.015418316 0.025909955 -0.013469998

lstm.weight_hh_l0 f4 [12, 3]
000000 a6 5e 5a bd 9b 4a 54 3d 44 99 46 3f db 62 50 bf
       -0.05331292 0.05182896 0.77577615 -0.8140084
000010 4c 23 58 be 68 12 57 3f cf aa 5f 3e 82 e3 1b 3e
       -0.21107215 0.8401246 0.21842502 0.15223506
000020 d9 cc 39 3f c7 0f 9d 3d b2 8a d6 be d4 81 4e be
       0.725782 0.07669025 -0.4190269 -0.20166713
000030 01 56 80 3f e9 de 62 bc 46 b2 de be db 6d 50 be
       1.0026246 -0.013847091 -0.43495387 -0.20354407
000040 65 d2 95 bd f6 f4 96 be dd 3d 46 3e 65 b8 50 be
       -0.0731552 -0.29483765 0.19359536 -0.20382841
000050 08 e3 f7 be db 53 ba 3d 27 42 61 bd c7 3c e5 bd
       -0.484154 0.090980254 -0.05499473 -0.11193233
000060 8e 1b a8 be 67 78 a3 be fb 9d aa bd 33 1d 98 bc
       -0.32833523 -0.31927797 -0.08330914 -0.01856861
000070 ae 5c f3 3e 7f 01 ef be 60 30 25 bf 49 60 fe bc
       0.47531646 -0.4668083 -0.6452694 -0.031051772
000080 9f f7 0c 3f 47 31 2e bf 60 18 30 be cc 6e a8 be
       0.5506534 -0.6804394 -0.17196798 -0.3289703

lstm.bias_ih_l0 f4 [12]
000000 d0 3a 09 3f 51 c5 03 3f 71 28 91 3e b9 91 84 3c
       0.53605366 0.51472956 0.28351167 0.016182767
000010 69 35 82 bf 02 9a 7e bf a0 b4 5f bf 8c 8d e2 be
       -1.017255 -0.9945375 -0.87384987 -0.44248617
000020 53 d2 bd 3e d1 a7 17 3e 8a 9c 95 3f 3b 9d ea 3e
       0.37074527 0.1481011 1.1688397 0.45823082

lstm.bias_hh_l0 f4 [12]
000000 64 98 3a 3d ba 86 90 3f ba 9d 28 3e d4 90 3e 3e
       0.045555487 1.1291115 0.16466418 0.18609935
000010 6e d3 8c bf b5 a7 9d bf a7 d3 02 bf eb 3d e7 bd
       -1.1002023 -1.2316805 -0.51104206 -0.11291107
000020 44 35 e4 3d 7f 30 58 be b9 e4 8c 3f 32 f5 14 be
       0.11142972 -0.2111225 1.1007301 -0.1454666

linear.weight f4 [1, 3]
000000 80 0c 25 b8 3e 58 28 3f ac 5f 99 3e
       -3.9350707e-05 0.65759647 0.29955804
